Optical Character Recognition/captcha/models/last_model.pt (torch, 770999 bytes, 24 tensors)

conv1.weight f4 [128, 3, 3, 6]
000000 78 97 6e 3d 3f 9c 73 3e 9d e6 8d 3e 21 64 db 3d
       0.05824992 0.23790072 0.27715006 0.107124574
000010 c0 40 61 bd a8 b4 ca bc 12 0e e6 bd 08 d2 88 be
       -0.05499339 -0.024744347 -0.112331524 -0.2672274
000020 7e 13 5a be 88 d5 51 be 3d 33 4d be ef 11 07 3e
       -0.21296498 -0.20491612 -0.20039077 0.13190435
000030 09 3c cc be fc 2c 24 bf 53 ba c9 be c3 c0 f9 bd
       -0.39889553 -0.6413114 -0.39399967 -0.121949695
000040 bf 5b 29 3d 56 15 9d 3e 33 ca 96 bc df 52 08 3d
       0.04134726 0.3068034 -0.018406963 0.033282157
000050 89 b8 7b 3e ce 30 a2 bb 96 a5 5f 3d af 73 33 bd
       0.24582113 -0.0049496656 0.054601274 -0.043811496
000060 8b a5 47 be 91 4d 27 be 2b e1 66 be 69 f7 21 be
       -0.19496743 -0.16338183 -0.22546832 -0.15817036
000070 06 fd dc bd 9a 9b 12 bc 89 8a 6c be b9 3d fc be
       -0.10790448 -0.008948231 -0.23099722 -0.4926584
000080 a6 7f ae be 0b a1 01 be 6c f2 2a 3c dc 20 46 3e
       -0.34081763 -0.1265909 0.010433774 0.19348472
000090 5a 56 da bd 15 4c 30 3e b3 5c 8f 3e e4 49 3d bd
       -0.106610015 0.17216523 0.2800041 -0.046213046
0000a0 f3 97 35 bd 9b c2 9a bd 4c 7a 7c be d4 96 92 be
       -0.044334363 -0.07556649 -0.24656028 -0.28630698
0000b0 31 66 80 bd 4d c9 de bd ab 73 f7 bd b3 ea ce 3b
       -0.062694915 -0.10878239 -0.12082609 0.0063145994
0000c0 42 b9 63 be 25 80 2e bf 92 64 f4 be b1 a6 48 be
       -0.22238639 -0.68164283 -0.4773298 -0.19594838
0000d0 b7 12 85 bd f4 67 c9 3d 44 26 73 3d a3 bb 9e bd
       -0.0649771 0.098342806 0.059362665 -0.077506326
0000e0 3c 56 ad be 2b ce e4 bd 9f 77 25 3e e1 88 d6 3d
       -0.33854854 -0.11172136 0.16158913 0.10475326
0000f0 1c 83 b6 3d 41 5a 7c 3e 3d c3 77 3e 02 0b 2c 3e
       0.08911726 0.24643804 0.24195571 0.16801074
000100 a7 9b d0 bd aa 62 96 be 37 16 61 be 45 62 49 be
       -0.10185938 -0.2937215 -0.2198113 -0.19666393
000110 a5 7a ae bd d4 69 da bd 23 b2 60 3d 1c ec 35 3d
       -0.08519486 -0.10664716 0.054857384 0.044414625
000120 f8 05 a9 bd bf a8 c4 bc 62 f0 83 be b8 5e d7 bd
       -0.082530916 -0.024006246 -0.25769335 -0.10516113
000130 5b 60 a1 bd f8 a6 44 3e cc 43 3c 3e 7d 93 75 3e
       -0.078797065 0.19204319 0.18385237 0.23982044
000140 48 f1 8e 3e c3 92 9e bb b7 41 0e be e9 36 97 bd
       0.27918458 -0.0048392727 -0.13892256 -0.0738352
000150 f0 d0 25 be a1 75 92 bc e5 5c b4 bd 2c 5b f8 3d
       -0.16192985 -0.017878355 -0.08806781 0.12126765
000160 e5 08 1e bd 14 bf 28 be cb a8 18 be 13 bc f3 bd
       -0.0385827 -0.1647914 -0.1490814 -0.11901107
000170 d4 77 6a be 8f 67 3b be f5 97 f2 3c 8c d3 4f bd
       -0.22897273 -0.18301223 0.029613474 -0.050738856
000180 09 e4 70 3e d5 ee 83 3e a3 35 da 3d ed 46 a7 3c
       0.23524489 0.25768152 0.10654762 0.020419562
000190 31 79 1d 3c 1d a3 51 be 04 ab 21 be 88 b3 51 be
       0.009611414 -0.20472379 -0.15787894 -0.20478642
0001a0 0a ce f4 bc 12 48 5d 3d 50 9b ee 3d 6a ab 3c bd
       -0.029883403 0.05402381 0.11650717 -0.04606191
0001b0 f8 0b 7b 3d 5e c5 9e bd 9b 59 af be 97 9d 82 be
       0.06129071 -0.077524886 -0.3424805 -0.25510857
0001c0 ec 09 6a 3e 91 db ad 3d 1d 29 4b be 4c c3 b4 be
       0.22855347 0.084891446 -0.19839902 -0.3530525
0001d0 50 24 ab bd af 79 be 3d 7f b0 7b 3e df e0 cb bc
       -0.083565354 0.09300553 0.24579047 -0.0248875
0001e0 0c 28 1d bf 49 85 c9 be a0 54 28 bd fd 13 18 3d
       -0.6138923 -0.393595 -0.04109633 0.037128437
0001f0 8f e1 4e be 98 ac 81 be 61 28 04 3e 6d 82 4e be
       -0.20203231 -0.2532699 0.12906028 -0.20166941
000200 2f 6b b8 be b9 97 9b bd 01 3b 72 3e 15 99 82 3e
       -0.36019275 -0.07597298 0.2365532 0.25507417
000210 9c 94 7b be 69 59 cf be ac 81 42 be 00 30 1a 3d
       -0.24568409 -0.40497902 -0.18994778 0.037643433
000220 3b 8e 43 3e 26 77 cf 3d bd e3 ef be 2f 71 cd be
       0.19097225 0.10130148 -0.46853438 -0.40125415
000230 08 75 2e be df ef 05 3e d7 70 e0 bd fc 3f 01 be
       -0.17036831 0.13079785 -0.109590225 -0.12622064
000240 69 1a 2a 3e 36 87 25 3c 72 57 95 be 06 4b 89 be
       0.16611637 0.010103038 -0.29168278 -0.2681505
000250 a4 8e dd bc d7 a1 7f 3e f1 a2 52 be 2f 7b ca be
       -0.027045555 0.24964081 -0.2056997 -0.39547107
000260 a2 ab 30 bd 05 9a 2c bd be 37 03 3e 3e c9 aa bd
       -0.04313243 -0.042139072 0.12814233 -0.08339165
000270 bd 97 e1 be 4a ff ed be b3 4d 25 be 46 7d e8 3d
       -0.4406108 -0.46483833 -0.16142921 0.11352019
000280 66 85 7b bd 83 ca 77 be c1 11 fb bc ea 04 43 bb
       -0.061406516 -0.24198346 -0.030648114 -0.0029757568
000290 87 75 5d be 4f 9f 3b bd 18 e0 8a 3d 81 77 12 3e
       -0.21626864 -0.045806225 0.06781024 0.143034
0002a0 cf 1d 67 3c d0 9a ad 3d c4 44 d5 bd de 67 8f be
       0.014106228 0.08476794 -0.104135066 -0.28008932
0002b0 47 70 83 be 54 b7 82 be 36 d7 58 bd 90 9c cf bc
       -0.25671598 -0.25530493 -0.052939616 -0.02534321
0002c0 ab 3b 08 3e 7f d9 63 3d b1 94 72 bd a5 0f 12 bd
       0.13304012 0.055627342 -0.059223834 -0.03565945
0002d0 1c 9b 96 bd e8 c2 25 be c9 17 23 be 56 60 a4 3d
       -0.073538035 -0.16187632 -0.15927042 0.08026187
0002e0 a1 e6 87 3e 06 9c 48 3e b3 82 0c 3e a7 b6 0e 3e
       0.26543143 0.19590768 0.13721733 0.13936864
0002f0 b8 3c c5 3d 30 a6 1f be 79 6a 51 be c8 d3 6d be
       0.09630722 -0.15590739 -0.20450772 -0.2322532
000300 0b 09 08 bd 02 ae 4d bc c4 1b 90 3d 46 3b 85 bc
       -0.03321175 -0.012553694 0.07036546 -0.016263615
000310 3f 1c 0c bd c5 72 b3 bd e9 15 c5 3d 4f e1 e3 3c
       -0.034206625 -0.08762125 0.0962332 0.027817396
000320 4b 58 39 be b1 ae 1a bd 07 79 3d 3e 8e c0 56 3e
       -0.18100087 -0.037764255 0.185032 0.20971891
000330 f0 6a 44 3b 13 e7 32 bd c1 25 04 3e 18 83 62 be
       0.0029970966 -0.0436774 0.12905027 -0.22120321
000340 a8 bd 9c be cd 59 eb bd 0b c3 15 be e3 ae ba 3c
       -0.30613446 -0.114917375 -0.14625184 0.02278847
000350 00 37 03 3e 7a ff 1b 3e 16 ee e1 3d 96 63 e8 3c
       0.1281395 0.15234175 0.110317394 0.028367799
000360 92 f9 e0 bd c9 2a c4 bd 54 1c 2c 3c a4 5e be bd
       -0.10985102 -0.09578473 0.010504801 -0.09295395
000370 42 9a 52 3e 7c f6 1a bd ea fc 51 3d fa 01 3f be
       0.20566657 -0.037832722 0.05126659 -0.18653098
000380 d2 37 fd bd 8c 79 26 be 69 67 6e bc 3c 66 c7 3c
       -0.123641625 -0.16257304 -0.014551022 0.024340741
000390 99 16 61 be 50 5b 9b be 59 65 65 be 00 c6 03 be
       -0.21981277 -0.30343103 -0.22401942 -0.128685
0003a0 05 2b 0f 3d b1 7e c8 bc 46 aa e9 bc 0e 18 fc bd
       0.034953136 -0.024474474 -0.028523576 -0.123092756
0003b0 8a 6d 0d be a5 07 8d 3d fe 9e 17 3e bc a0 11 3e
       -0.13811317 0.06886224 0.14806744 0.14221472
0003c0 09 81 2d be e8 1b 5a 3d 51 f1 e4 bd 5c a3 03 3d
       -0.16943754 0.05324927 -0.1117884 0.032138214
0003d0 12 81 34 bd e3 ba 0b be ba 2b 65 be 4e 14 b9 be
       -0.044068404 -0.1364551 -0.22379962 -0.36148304
0003e0 ee b6 4e be b0 a1 a6 bb b3 5b 02 3e 98 c1 40 3e
       -0.2018697 -0.0050851926 0.12730293 0.1882385
0003f0 c8 6e 63 bd de 71 10 3d 6e 83 51 3d c3 db 71 3d
       -0.05552557 0.035264842 0.05115073 0.05904747

conv1.bias f4 [128]
000000 a1 94 36 3e 84 c1 a4 3d d0 10 80 3e 71 0c ea bd
       0.17830135 0.08044723 0.25012827 -0.11428154
000010 a0 0f a5 bd 50 25 95 3e 54 4b 00 be a7 7b 5a be
       -0.08059621 0.2913003 -0.12528735 -0.21336232
000020 a8 d1 7f 3e 1f bd 96 bd 54 9f 18 3e d4 1d 3c bc
       0.24982321 -0.07360291 0.14904529 -0.011481721
000030 a8 82 ef bc dd 44 c3 3d bc c5 8b 3d 32 5c db 3d
       -0.029237106 0.09534619 0.06824824 0.10710944
000040 d3 af cf 3d c8 31 7a bc 28 f5 c9 3d 1b a4 a5 3e
       0.10140958 -0.015270658 0.09861213 0.32351765
000050 67 be 4e be af 8d 1a 3e d1 d3 11 bd e8 44 56 bd
       -0.2018982 0.1509311 -0.035602394 -0.052311808
000060 41 a2 33 3e 9a fd 51 bd 64 f5 38 bc 17 ed e9 bd
       0.17542364 -0.051267244 -0.011288974 -0.114221744
000070 34 6d 99 bc d4 22 17 bd 20 61 7a bd a3 89 94 bd
       -0.01872883 -0.03689845 -0.061127782 -0.072528146
000080 22 43 23 be 06 eb 40 3d f6 44 4a be 21 99 a9 3e
       -0.15943578 0.047099136 -0.19752869 0.3312464
000090 b4 01 44 be 4b ed 7d 3d 12 34 0d 3e 8e da 92 be
       -0.19141275 0.06199388 0.13789394 -0.2868237
0000a0 86 9d 69 be a1 b5 8f be fd 8c a6 3d 75 8f cd 3d
       -0.22813997 -0.2806826 0.0813236 0.10037128
0000b0 b3 fa 9c be bc dd 68 be 0f 2c 48 be 97 c1 f2 3d
       -0.30660018 -0.22740835 -0.19548057 0.118533306
0000c0 23 8c 16 3e 80 04 95 bd 37 48 ab 3d 64 02 6e be
       0.14701895 -0.07276249 0.08363383 -0.232431
0000d0 fe f5 03 be 80 bb 4d 3d 63 b3 a2 3d aa 83 d9 3d
       -0.12886807 0.050227642 0.079443716 0.10620816
0000e0 52 58 c1 3d 90 5f 03 3c c5 74 91 3e 0d 0c 7d 3e
       0.09440674 0.008018389 0.284094 0.24711628
0000f0 13 62 5f be 4c ea 1d be df 56 36 3d 12 f4 ac bc
       -0.21814756 -0.15421408 0.04451644 -0.021112476
000100 84 ff a7 bd 57 d3 f8 3d c8 cb 72 be 1c 9d 9e bd
       -0.082030326 0.12149685 -0.23710549 -0.0774481
000110 d0 c8 cf 3d 72 5e 38 3b 24 bc 56 3d b0 e6 7d bd
       0.10145724 0.0028132466 0.05242552 -0.06198758
000120 a9 49 e5 3e 57 96 c8 3d ef 39 bf 3d 0a 3a 6a be
       0.4478276 0.097943 0.09337222 -0.22873703
000130 ec 69 23 be 55 28 57 be 07 3a 3d bd 0d 67 15 3e
       -0.15958375 -0.21011479 -0.046197917 0.14590092
000140 0f 6e fa 3d 46 67 67 be cd 88 91 3d 23 49 4e 3d
       0.12228023 -0.2259799 0.07106171 0.050362717
000150 6f 74 b3 bd 88 61 0c be d0 43 46 bd 1e 01 51 be
       -0.08762442 -0.1370908 -0.048404515 -0.20410582
000160 d2 c8 49 3e 6c 46 96 be be a9 db bd 6d 03 a5 be
       0.19705513 -0.29350603 -0.10725735 -0.32229176
000170 fc 16 9c 3d e0 73 b7 bd 23 0d 38 3e 33 71 8b ba
       0.076215714 -0.08957648 0.17973761 -0.0010638594
000180 8a 89 b5 3d 7d 04 a0 be 1b 8d c7 be 91 34 c5 bd
       0.08864124 -0.31253424 -0.38974842 -0.09629167
000190 09 dd f7 3d 02 5d a6 be 3c ae b3 be 20 d6 2c bd
       0.12102706 -0.32492834 -0.35093868 -0.042196393
0001a0 6a 01 e8 bc 61 cd c5 bd fa ff 81 3e dc e4 05 be
       -0.028320987 -0.096583135 0.25390607 -0.13075584
0001b0 1c cc 69 be de f4 67 3e ec 3d d3 bd 37 dc a5 be
       -0.22831768 0.22652003 -0.10314545 -0.32394573
0001c0 68 31 8f be 9d 30 a3 bd e0 4b 68 be 37 fd 8b bd
       -0.2796738 -0.079682566 -0.22685194 -0.06835406
0001d0 bc 8b 73 3e 1a 21 8a 3d e6 1e 76 be 5b e0 ad bc
       0.23783773 0.06744595 -0.24035224 -0.021225145
0001e0 f0 33 73 3e a3 c7 6c 3e b6 61 85 3e 62 50 08 3d
       0.23750281 0.2312303 0.2605111 0.033279784
0001f0 c7 b0 69 be 46 c9 41 3e 67 6f 93 3d 1f 8a e4 bc
       -0.22821341 0.18924436 0.07198983 -0.027897893

conv2.weight f4 [64, 128, 3, 6]
000000 8d 3d dc bc 86 e3 b4 bc 5b 3e 35 3c e4 17 4b 3c
       -0.026884818 -0.022081148 0.01106223 0.012395833
000010 ce 2f 41 bc 7b a4 b2 bc d7 d8 1a 3c d5 c1 49 3c
       -0.011791183 -0.021806946 0.009451113 0.01231428
000020 1d 8a bf bc 7e 29 99 ba 8f 02 91 bc 38 0f 14 3c
       -0.023381287 -0.0011685339 -0.017701415 0.009036832
000030 6e 9f 6a bc 66 66 e0 3b 6d 2b a2 bc 86 a7 51 bc
       -0.014320238 0.0068481443 -0.019796098 -0.012796288
000040 e3 96 71 3c 85 e9 60 bc 9f 82 94 bb 7d 69 ed bb
       0.014745447 -0.01372755 -0.004532173 -0.007245241
000050 ca c1 53 3c 0c 2e c0 bc a7 00 e9 ba 0c e0 a0 bb
       0.012924621 -0.023459457 -0.0017776684 -0.004909521
000060 10 b7 c1 bb 2d 5e 52 3c 5c 15 f5 bb 63 7f e7 3b
       -0.0059117153 0.012839836 -0.007479353 0.007064746
000070 94 42 43 39 a8 c2 3c bc d1 f7 be bc 5a 0e ac ba
       0.00018621451 -0.011521019 -0.023311527 -0.0013126836
000080 06 fd 2a bc f6 90 cc bc 23 bf 85 3a 29 87 02 3c
       -0.010436302 -0.024971467 0.0010204058 0.007966795
000090 a2 45 87 3a 7f ec 6d bc 35 fb 97 bc 42 df a3 bc
       0.0010320435 -0.014521717 -0.018552402 -0.020003919
0000a0 76 5e a3 bb 20 d2 00 bc 89 f1 c6 bc c1 01 b0 bc
       -0.004985626 -0.007862598 -0.024285095 -0.021485211
0000b0 14 07 54 3b c8 d5 e3 bc 2f e4 68 bc d6 b3 17 bc
       0.0032352852 -0.0278119 -0.014214559 -0.009259185
0000c0 c9 ca 27 3c 99 db af bc 89 d5 a1 bc b1 a1 c8 3b
       0.010241219 -0.021467017 -0.019755142 0.0061227907
0000d0 b2 b1 dc 3b c7 72 f8 bb fc ce c3 bc 5a 4e d6 bc
       0.00673505 -0.007582042 -0.023902409 -0.026160408
0000e0 66 b4 ee b9 82 1e 91 bc c2 4b 1e bc ff c7 ff bb
       -0.00045529305 -0.017714743 -0.009661617 -0.007805824
0000f0 3d 3f 3c 3c 9c b8 68 bb b3 7a cf bc a7 3a 3b 3b
       0.011489687 -0.0035510426 -0.025327062 0.0028568895
000100 8f b5 68 3b 57 0c 00 3c 23 7c 7b bc 98 e0 6d bc
       0.0035508608 0.007815442 -0.015349421 -0.014518879
000110 99 db e5 bc f3 f8 e6 bb 85 36 df bc 82 13 f8 bb
       -0.028058814 -0.00704872 -0.027247677 -0.007570685
000120 f3 a3 40 3c 2d 59 d1 bc 0d 7a e1 bc 7b cb ca 3b
       0.011757839 -0.025555218 -0.027524019 0.0061888075
000130 ae 35 91 bc a0 39 5f bc 66 a7 b3 bb d6 ba dc bc
       -0.017725792 -0.013624579 -0.005482602 -0.026944559
000140 21 1f d2 bc 56 61 64 3b 3e c7 35 3b 88 dd 17 3c
       -0.025649609 0.0034848056 0.0027737166 0.009269126
000150 4d 69 7d bc 53 97 a9 bc f8 ae 09 bc 7d 9e 8e bc
       -0.015467 -0.02070204 -0.008403532 -0.017409557
000160 cc 14 bf bc c7 76 1c 3c 52 6f f8 ba 44 05 26 bc
       -0.023325346 0.009549803 -0.0018954074 -0.010133091
000170 88 10 89 3c 2a 68 9e 3b 27 16 d3 3b 78 b3 a9 bc
       0.016731516 0.0048341947 0.0064418497 -0.02071546
000180 58 1e 21 3c d2 7d 15 bc f4 94 40 bc 75 02 49 bc
       0.009833895 -0.009124236 -0.011754263 -0.012268652
000190 ae 0a 38 bc f7 ae 10 bc 65 4a 12 bc db 9c c5 bc
       -0.011233015 -0.008830777 -0.00892887 -0.024122646
0001a0 20 0f d7 bc 58 57 5b 3a e7 0e 08 bc 34 89 b3 bc
       -0.02625233 0.0008367202 -0.008304334 -0.02191601
0001b0 b8 d6 f3 bc 8f 9a ff bb 07 38 a4 bc c5 47 26 bc
       -0.029765472 -0.0078004072 -0.020046247 -0.010148947
0001c0 41 eb c8 bb 3d 60 f0 3a 2b 05 99 bc b3 80 4c bc
       -0.00613156 0.0018339228 -0.018679222 -0.012481856
0001d0 7c 17 0d bb 3a 6c 2f 3c 4d eb b1 bc 16 35 13 bc
       -0.002152889 0.010706956 -0.021718645 -0.008984825
0001e0 2d fb 38 3c db 90 f6 bb d2 ce 1e 3c 05 6b 75 3c
       0.011290354 -0.0075245923 0.0096928645 0.014979129
0001f0 85 24 34 bc 1f 15 03 bc 38 7d bd bc f3 f7 24 bc
       -0.010995035 -0.008000641 -0.023130998 -0.010068881
000200 11 7d e8 bc 7f 2b e3 3a d1 33 66 bc e8 2b c1 3a
       -0.028379949 0.0017331688 -0.01405044 0.0014737817
000210 b1 09 a3 3b 7d 5e 8c bc 91 bd 53 3c 62 56 21 bc
       0.0049755205 -0.0171349 0.012923614 -0.009847255
000220 99 f5 33 3c 4e c0 c2 bc 96 3d a5 bc c7 9d b3 bc
       0.010983848 -0.023773339 -0.020170968 -0.02192582
000230 bd 20 16 bc 26 8f bf bb 3c c6 45 bc 8f 7d c0 bc
       -0.009163079 -0.005845922 -0.012071189 -0.023497371
000240 15 79 2e ba b1 fd 0a 3c cd 50 05 3c 04 f6 83 3c
       -0.0006655616 0.008483336 0.00813694 0.01610852
000250 7b bb 0c 3c 11 a2 91 3b 39 83 8c 3b 07 73 ef bb
       0.008589621 0.0044443686 0.004288104 -0.0073074135
000260 cf ee b9 bb 90 59 94 3c f3 ca 08 3c c8 be b0 bc
       -0.00567422 0.018109113 0.008349168 -0.021575347
000270 5b 39 c3 bc 22 39 1f 3b f2 f8 37 bc 5b 6c 65 3c
       -0.02383106 0.0024295528 -0.011228787 0.014002885
000280 46 eb 28 3b 42 12 d5 3a ec 9a a7 bc 47 08 c7 bb
       0.0025775 0.0016256052 -0.020459615 -0.006073985
000290 98 ba f8 bb ca ee f2 bc aa ab df bc bf 7d 71 bc
       -0.007590603 -0.02965488 -0.027303535 -0.014739453
0002a0 45 a6 06 3c 7a a8 ce 3b bf 4f 46 bc de 6b 0e bc
       0.008218353 0.006306705 -0.012103974 -0.00869271
0002b0 ed 3e 09 3c b9 5b d0 3a 23 01 e6 bb cb ce 85 ba
       0.008376819 0.0015896476 -0.0070191785 -0.0010208724
0002c0 b4 ed 71 3b 0d c1 a9 ba ca 52 c1 3c aa 19 06 3c
       0.0036915364 -0.001295121 0.023599047 0.00818483
0002d0 ad f9 90 bc e8 93 03 bc a1 0a a4 bc b1 5a 0c 3c
       -0.01769718 -0.008030869 -0.0200246 0.008566544
0002e0 1c 82 e9 ba 93 9b 90 bc 4a b4 64 3b a6 25 cc 3b
       -0.0017815265 -0.017652309 0.00348975 0.006230074
0002f0 51 d6 d7 bc 43 fe 8d bb 0a 75 d5 bc 50 98 f1 bb
       -0.026347311 -0.004333289 -0.026056785 -0.0073728934
000300 73 3c 1e ba 32 9c 5d 3b 89 01 83 bc 96 52 1a 3c
       -0.00060362293 0.0033815023 -0.015991943 0.009419104
000310 7f 07 3e 3c 54 cf b7 bc 83 8c a3 bb a1 b1 05 3c
       0.011598467 -0.022437729 -0.0049911155 0.008160026
000320 fc bc 1e 3c 75 47 62 3c b1 6e 10 3c c7 96 3e 3c
       0.009688612 0.013810982 0.008815453 0.011632628
000330 b4 15 2c bc 0d 62 d8 bc d7 b1 9d bb db 18 d0 bc
       -0.010503221 -0.026413942 -0.00481246 -0.025402477
000340 ef a5 ab bc b8 27 1d 3b ca 53 90 bb 4d 08 a5 3b
       -0.020953147 0.0023979973 -0.0044045197 0.00503639
000350 80 81 21 bc 7a 5f 94 bc db 86 05 3b 7a c8 ba 39
       -0.009857535 -0.018111933 0.002037457 0.0003562605
000360 c8 46 c6 bc fa 73 3a 3c 44 5d 46 bc f6 b8 a1 bb
       -0.024203673 0.01138019 -0.012107197 -0.004935379
000370 6b 2d f0 bc 77 4f d9 bc 62 1d 60 bc ea 0d 41 bb
       -0.029318532 -0.02652715 -0.01367888 -0.0029457756
000380 aa 87 96 bc a0 db ae bc 4d 2b 9a bc 04 8e a3 bc
       -0.018375237 -0.02134496 -0.018819476 -0.01996518
000390 c0 f4 d3 bc b1 0e 30 bc 40 20 8f bc e6 45 7d bc
       -0.025873542 -0.01074569 -0.017471433 -0.01545856
0003a0 32 60 f6 ba f6 dc e9 bc 19 db ab 3b ad 65 7f 3b
       -0.0018796979 -0.028547745 0.0052446243 0.0038970516
0003b0 96 29 e1 bb 19 e2 0e 3b cb a0 30 bc eb 28 45 bc
       -0.0068714125 0.0021802245 -0.0107805235 -0.012033681
0003c0 8e 70 d4 bc 40 4e 76 bc 8e 45 7d b9 b4 49 b0 3b
       -0.025932577 -0.015033305 -0.00024153871 0.00537988
0003d0 85 0c 87 bc af 41 fd bb 2e 7f c5 3b 6a d9 83 bb
       -0.016485462 -0.0077287774 0.006027124 -0.0040237205
0003e0 4a 41 20 bc 29 58 fd bb ea c8 06 bc 32 5b 45 3c
       -0.009781191 -0.007731457 -0.008226613 0.012045668
0003f0 78 1a cd bc e9 7e 14 3c 8d 46 34 bd 1d 5d 91 ba
       -0.025037035 0.009063461 -0.044012595 -0.0011090372

conv2.bias f4 [64]
000000 61 18 e0 bc 4e 0e b0 bd ae 99 28 3a 09 ce c0 bc
       -0.027355375 -0.085964784 0.00064315915 -0.023535745
000010 cd ab 86 bd 15 54 6a 3e 89 b0 6f 3b 31 51 8c bc
       -0.06575737 0.22883637 0.003657373 -0.017128559
000020 50 d2 f4 3c 19 ec 6d bb 56 c4 87 3d b2 81 03 3e
       0.029885441 -0.0036304055 0.06629245 0.12842444
000030 10 a1 d3 3b 1c e8 e4 bc 28 91 d1 bb b0 6b c1 bc
       0.006458409 -0.02794271 -0.006395478 -0.02361092
000040 c6 f6 65 bd 0b a6 18 bb fd 96 cc bc 0f df 9d bb
       -0.056143545 -0.0023292329 -0.02497434 -0.0048178504
000050 5e a7 81 bc 5d c7 be bd 29 04 c2 bc 00 57 35 3c
       -0.015826877 -0.09315369 -0.023683624 0.011068106
000060 bd 9e 23 bd 27 3e ac 3d f2 1e 39 bd 11 ea c9 bb
       -0.039946306 0.08410292 -0.045195527 -0.006161936
000070 7e 31 0f 3b 32 bf 20 bd 6f 5a e3 3d 5d a6 88 bd
       0.0021849568 -0.039244838 0.11101233 -0.06672356
000080 01 e0 b1 bc ea 41 8c bd d1 8c f2 bc 3c 3d 80 bc
       -0.021713259 -0.068485096 -0.029608162 -0.015654199
000090 cc 17 b3 bc 82 2d 03 3c 0d f1 36 bd ac c2 8b ba
       -0.021861933 0.008006455 -0.044663478 -0.0010662875
0000a0 32 f7 f0 3d 0f 02 22 bd 6a 14 b0 bc 35 db 3a bc
       0.11765899 -0.039552744 -0.02149411 -0.011404802
0000b0 80 79 78 bc 0f 53 22 bd 58 30 f3 3c 79 50 8c bc
       -0.015165687 -0.039629992 0.029686138 -0.017128216
0000c0 56 be 5f bc 4c 8d 20 3c 3f 7e 92 3c a8 83 1d bd
       -0.0136562195 0.009799313 0.017882464 -0.038455635
0000d0 a2 aa aa bc 38 de bf bd db 17 6f bc 0d 9f 04 bd
       -0.020833317 -0.09368557 -0.01459309 -0.032378245
0000e0 77 11 2b bd b6 12 e4 bb a1 61 43 3d c4 bd 6b bc
       -0.041764703 -0.0069602383 0.047700528 -0.014388505
0000f0 4a 04 59 3c c3 e7 ae bd cf 09 6a bb fb 31 cb bc
       0.0132456515 -0.08540299 -0.0035711413 -0.024804106

linear_1.weight f4 [16, 448]
000000 91 33 04 bc 8e 8b 79 bc 3a b8 ba bb e9 6f 44 3c
       -0.008068935 -0.015231026 -0.005698231 0.011989572
000010 96 be 58 bc 99 86 a0 bc 1b ed cd 3c 37 fa d0 bc
       -0.013229033 -0.019595431 0.025137475 -0.025509937
000020 1b fc a7 3c d9 29 46 bd 04 ee 51 bd ae ec cc 3c
       0.020505955 -0.048379753 -0.05125238 0.025015201
000030 2b 87 cc ba ae 97 91 3c dc 97 3d ba 90 6b 3a bd
       -0.0015604248 0.017772522 -0.00072324066 -0.045512736
000040 20 22 e4 3c 4e b2 09 bd 68 68 26 bd 36 a3 48 3b
       0.027848303 -0.03361731 -0.040626913 0.003061486
000050 e8 2d 2c 3c e8 2a 02 bd f9 d3 cd bc c4 d2 a5 bc
       0.010508992 -0.0317792 -0.02512549 -0.020242102
000060 a6 69 05 bd 97 87 0e bd e6 62 95 bb 86 6d 25 bd
       -0.032571457 -0.034797277 -0.0045589088 -0.040387653
000070 8e 64 eb 3c c3 0e 1d bd 1a 9f f8 3c d0 8b 28 3c
       0.028734472 -0.038344156 0.030349303 0.01028724
000080 85 59 ed bc c8 85 3c bc 66 43 99 3c c6 2d 2a bd
       -0.02897335 -0.011506505 0.018708896 -0.04154756
000090 ec 6a 60 bd 90 7f c1 bb 14 52 0c bc b9 be 37 bd
       -0.05478947 -0.005905099 -0.008564491 -0.04485962
0000a0 4f 77 02 bd db 6b 0e 3d 68 c9 ea bb 2b fa c3 3c
       -0.031852063 0.034770828 -0.007165123 0.023923
0000b0 f4 4e af 3c aa 52 0a 3d 7c 90 cb bc 2b a7 1c 3c
       0.021399952 0.03377024 -0.024849169 0.00956134
0000c0 dc 94 96 ba dc 8c 99 bc 58 22 e1 bb e0 19 5f 3c
       -0.0011488455 -0.018743925 -0.006870549 0.013617009
0000d0 47 86 05 3d 1f e0 52 bd 05 2c d8 38 bf db 59 bc
       0.03259876 -0.05148327 0.00010307882 -0.01329702
0000e0 60 f1 e9 bc d2 19 b6 3c 0c ab c9 bc 8a f1 81 bc
       -0.02855748 0.022229109 -0.024617694 -0.015862245
0000f0 da 3a 5f bd 90 8f 59 3b 2a 04 eb 3c 61 13 0c bd
       -0.054499485 0.0033197142 0.028688509 -0.03419817
000100 9f 68 98 bc 47 cf ed 3c 69 65 7c 3c 31 c5 a8 3b
       -0.018604575 0.029029502 0.015405037 0.00515046
000110 c7 b1 df 3c f6 51 42 3b 37 14 aa 3a b1 79 2e bd
       0.02730645 0.0029650903 0.0012975995 -0.042596523
000120 f2 b8 81 3c 70 5b 22 bd 9e ac 1b bd 17 eb 89 ba
       0.01583526 -0.039637983 -0.038006417 -0.0010522333
000130 40 91 cf 3a 5e 0d 8b bc 3c ab e5 3b 5c b4 0f bc
       0.0015836135 -0.016974147 0.007008938 -0.008771028
000140 f0 d8 3a 3b e1 5d af 3b f1 09 36 3d 7d 04 4f 3c
       0.0028510652 0.0053517674 0.044443075 0.012635347
000150 a0 f2 e8 bb 0f ca fc bc 98 38 72 3c fc 9f c2 b8
       -0.0071090013 -0.030858068 0.014784001 -9.28044e-05
000160 84 b8 67 bc dc 4c 26 bc 62 b9 4a bd 0b e0 88 3c
       -0.014143113 -0.010150161 -0.0494932 0.016708395
000170 a8 c9 12 bd 41 96 98 bb 8c 4e 09 bd 53 c3 a3 3c
       -0.035836846 -0.0046565835 -0.033522174 0.019990599
000180 d6 67 80 bc c9 15 e4 bc 9c 95 97 bd ea af b5 3c
       -0.015674513 -0.02784242 -0.074015826 0.022178609
000190 d1 97 1b bd b6 73 03 bd 8a 37 f2 3c 03 58 5d bd
       -0.03798658 -0.032092772 0.029567499 -0.054039013
0001a0 51 3d f0 bb 96 c2 67 3c 90 ff 82 bb fe e2 21 3d
       -0.0073315282 0.014145514 -0.0039977506 0.039523117
0001b0 f6 f3 16 3d 51 c0 16 bd 78 1f 1d bd bc e2 42 bd
       0.036853753 -0.0368045 -0.03836009 -0.047579512
0001c0 2a c7 d3 3c a0 57 06 bb e3 57 40 3d 39 93 23 bd
       0.025851805 -0.0020499006 0.046958815 -0.039935324
0001d0 53 ad 36 bd 8c 32 73 3c ae a0 84 bc e8 a6 c5 bc
       -0.04459889 0.014843594 -0.0161899 -0.024127439
0001e0 23 32 05 3d d9 17 c4 bc 35 6e 8f bc 01 86 2a bd
       0.032518517 -0.023937153 -0.017508605 -0.041631702
0001f0 60 2d 8a 3a 66 17 e6 3c 7d 3b 02 bc ea 0e 26 3d
       0.0010542087 0.02808733 -0.007948753 0.040541567
000200 aa 1e 10 bd f2 e1 5b 3c e1 20 55 bd e4 dc 59 3c
       -0.035185494 0.013420569 -0.05203331 0.013297293
000210 d1 bf 0b bc 8c 4d 17 bd 5b 8a 04 bd 26 ff 1b bd
       -0.008529619 -0.03693919 -0.03235851 -0.038085125
000220 f6 5a f0 3c 04 79 40 bc 0b a0 0c 3d e0 62 6d 3c
       0.029340249 -0.011747602 0.034332316 0.014488906
000230 c2 2e 8d 3b 7f a6 61 bc 0f 4c 8f bd 18 8e 42 3d
       0.0043085525 -0.013772606 -0.06996929 0.047498792
000240 a7 73 88 3c 55 cf 82 bd 56 0f 33 bd cd 80 41 bd
       0.01665671 -0.06387202 -0.043715797 -0.047241975
000250 42 15 5f bd 1d ec bd ba f9 2f 91 3c 4e 44 b2 bc
       -0.054463632 -0.0014489923 0.01772307 -0.021761086
000260 5e fa 7a bd f0 bf e4 ba 00 c2 6e 3c 84 b1 1c 3d
       -0.061273925 -0.0017452221 0.01457262 0.03825523
000270 ed 80 08 3d 62 f9 23 bd 01 b0 ea bc f5 4a bf ba
       0.03332608 -0.04003275 -0.028648378 -0.0014594482
000280 cf b9 8a 3c e5 f3 e9 bc 9a 1e a9 bc 04 62 19 3c
       0.016934304 -0.02855868 -0.020644475 0.009361748
000290 10 45 12 bd b4 19 02 bd a7 54 0c 3d 4a dd f8 3c
       -0.035710394 -0.031762794 0.03426042 0.030378956
0002a0 aa dd 18 3d cf 34 5b 3c 57 5c 04 bd 88 2b 41 bd
       0.03732077 0.01337929 -0.032314625 -0.047160655
0002b0 44 c9 97 3c 99 2c 0b 3d 7d d0 f5 3c 48 03 2a bd
       0.018528588 0.03397808 0.030006642 -0.041507035
0002c0 05 7d 01 bc 52 bc 20 bd 25 1a 77 3d 3f ae 81 bb
       -0.007903342 -0.039242096 0.060327668 -0.0039575393
0002d0 6b 1b 0f bd 9b f5 1d 3c 1a 72 c3 3c e7 4b 0c bd
       -0.034938257 0.009641076 0.023858119 -0.034252074
0002e0 2d 5b 97 3c 07 ca 3c 3d 7e 66 95 bb 0d 81 c3 bc
       0.018476093 0.046091106 -0.004559337 -0.023865247
0002f0 8f 0a aa 3c 23 38 1e bc cc de 18 bc 0d 5c 2e bd
       0.020756988 -0.009656939 -0.009330463 -0.042568255
000300 92 c5 de bc 29 4f 03 bd 5d a6 1b 3d 25 6b f0 3a
       -0.027193818 -0.032057915 0.038000453 0.0018342478
000310 0e df 40 3c ea 6d 50 bd c8 d1 1d bd 58 cc 52 bd
       0.01177193 -0.050886072 -0.03853014 -0.05146441
000320 8e e7 a4 3c 44 a9 01 3c a6 59 2d bc 8c 42 28 bd
       0.020129945 0.007913891 -0.010580456 -0.04107909
000330 bd 07 61 bd 3f cd b0 bc 14 65 80 bc 9f bd c1 bc
       -0.05493902 -0.021582244 -0.015673198 -0.023649989
000340 cb 4e 15 bc 16 1e 4c 3c b9 59 ee bc 26 78 7e 3d
       -0.009113024 0.012458345 -0.029095517 0.0621263
000350 15 be 4e bd e2 a9 52 bd 18 0c 14 3b 16 22 8d bc
       -0.050474245 -0.051431544 0.0022590216 -0.017228168
000360 fa 51 f1 3c 19 db 20 3d 44 92 2e bd 56 0e 13 3c
       0.029458035 0.039271448 -0.04261996 0.008975586
000370 78 63 89 bd a8 48 15 3c dc 96 fa 3c 7f db e5 bc
       -0.06708425 0.009111561 0.030589513 -0.028058765
000380 1b 52 85 bd cf db 64 bd ba a9 81 bd 85 0e 8f bb
       -0.06509801 -0.05587369 -0.06331201 -0.0043657445
000390 76 9a 7b 3c d8 fe ef bc 35 65 8d bd b9 a3 61 3c
       0.015356651 -0.029296324 -0.06904069 0.013771945
0003a0 3a af 60 3d ed e2 21 3c 38 22 1d bd 8a bd 4c bd
       0.05485461 0.0098807635 -0.03836271 -0.049985446
0003b0 2b b4 40 3c d8 05 e1 bc 00 46 c9 3b 78 a5 2c 3c
       0.011761705 -0.027468607 0.006142378 0.010537498
0003c0 b7 37 27 3d 13 4d 45 bd 7a d8 25 3d 53 3a 1a 3d
       0.04082462 -0.048169207 0.04048965 0.03765328
0003d0 69 9f 2e bd d6 c2 0f bd f1 c3 c6 bb 43 c0 a4 bc
       -0.042632494 -0.03509792 -0.0060658385 -0.020111209
0003e0 07 4c 74 bc 36 ec 36 bd 66 ae 0b 3c 29 86 26 bd
       -0.014910704 -0.044658862 0.008525467 -0.04065529
0003f0 6c 44 53 bd b7 90 d6 bc c8 6a 81 bd 00 fa 5c 3c
       -0.051578924 -0.026192052 -0.06319195 0.013487339

linear_1.bias f4 [16]
000000 85 37 9f 3c 3e 62 f3 3d ac 80 67 3d c6 80 bd bb
       0.019435653 0.118839726 0.056519195 -0.0057831733
000010 1c f1 3c bd d3 e3 46 3d aa 2a 97 bd 42 2c dc bc
       -0.046128377 0.048557114 -0.073811844 -0.026876573
000020 dd 23 67 3d 93 8c fc 3d 72 55 7d 3c c7 31 4b 3d
       0.056430686 0.123315 0.015462266 0.04960802
000030 7e 99 12 3d d0 13 3e bd 6b e5 fa 3d b4 8f 00 bc
       0.035790913 -0.046405613 0.12250789 -0.0078467615

gru.weight_ih_l0 f4 [96, 16]
000000 a6 d1 21 be d9 a2 09 bd a5 c7 6e 3d e3 3a 05 3e
       -0.15802631 -0.03360257 0.058295865 0.13010745
000010 8a 18 15 3d 20 f0 43 bd cc 46 c2 bd f9 b3 52 bd
       0.036400355 -0.047836423 -0.0948616 -0.051441167
000020 4b 89 fe be d5 e6 0c 3e 83 99 55 3d 46 3f bc 3d
       -0.4971412 0.1375993 0.052148353 0.09191756
000030 81 df de bc 1a 77 f7 bd 1f 0d ea be d0 91 c4 bd
       -0.027206184 -0.12083264 -0.45713136 -0.09598124
000040 b6 35 f7 3d af fe 5c bd bc cb 71 bd 85 0b 0b 3e
       0.120707914 -0.053953823 -0.059032187 0.13578613
000050 a6 d4 01 3e 5f d6 12 be 07 7a 19 be ff d5 ca 3d
       0.12678775 -0.14339589 -0.14987956 0.09904098
000060 19 ea 9f be 67 8f 11 3c a7 83 0b be 2d 9e 99 3e
       -0.3123329 0.008884287 -0.1362444 0.3000349
000070 bc d8 6d be 80 7c a9 bb 79 f7 a1 bd 6a 95 4b bd
       -0.23227209 -0.0051723123 -0.0790853 -0.04970304
000080 69 a0 0a 3e 6d c7 eb be 00 bd 5a bd 22 cc d9 bd
       0.13537754 -0.46050587 -0.0534029 -0.10634638
000090 33 62 20 3e 9d 2b 1c 3e 02 59 35 be 65 93 3d be
       0.1566246 0.15251012 -0.17709735 -0.18513258
0000a0 4d ed f7 be 92 2d 02 3f fe 13 2b 3c db f8 ff 3e
       -0.48423234 0.50850785 0.010441778 0.4999455
0000b0 68 40 14 bd 0e 0b 53 bd 39 3c 21 bd 56 9c 11 3e
       -0.036194235 -0.051524214 -0.039364073 0.14219794
0000c0 dd cb f5 3d 47 5b 08 bd 86 95 03 3d 35 f4 33 3d
       0.120017745 -0.033290174 0.03212502 0.043934066
0000d0 89 7f 39 3e 63 a1 08 3e 59 bb b4 bd 79 b8 1a be
       0.18115057 0.13342814 -0.08824796 -0.15109433
0000e0 1b 26 7a 3d ba df 5c 3d 3f 18 79 3e 9d 0e 31 3e
       0.061071496 0.0539243 0.24325655 0.17290731
0000f0 aa 3c 14 be 9a be 16 3e 41 e0 21 3e 45 fc 1b 3c
       -0.14476267 0.14721146 0.15808202 0.009520595
000100 25 17 df bd 7d 8d 34 3c 05 52 68 3d 17 e7 d4 3c
       -0.10893086 0.011020062 0.056718845 0.025989098
000110 e5 95 1b be 60 c1 26 be 7a e2 d6 3b 7e 67 2f be
       -0.15193899 -0.16284704 0.00655776 -0.17129323
000120 3b 1e e0 be 93 7c bf 3d de e7 8f be c4 16 06 3e
       -0.43773064 0.093499325 -0.28106588 0.13094622
000130 ef 33 19 bf 0d cc 02 3d 1e 42 7d 3d 6c 63 c4 bc
       -0.5984487 0.03193288 0.061830632 -0.02397319
000140 64 49 84 3d df 95 e8 be ea 6c 0e be f1 b2 d8 3d
       0.06459311 -0.45426843 -0.13908735 0.10581005
000150 c0 33 1d be ba 5b 28 3e 30 2a 2f 3c 6c 8c 0e 3e
       -0.15351772 0.16441241 0.010691211 0.13920754
000160 04 10 a1 bc 2e cd 3a bd 9c 86 f7 bc 57 87 28 3e
       -0.019660957 -0.04560583 -0.030215554 0.16457878
000170 bc 78 41 be 4b cc 30 be 05 85 26 bc 99 09 bc 3d
       -0.18893713 -0.17265432 -0.01016355 0.09181518
000180 5c 62 45 3d 3b ee 09 3d 9a a9 09 bd c6 e6 d1 3c
       0.048189506 0.03367446 -0.03360901 0.025622737
000190 ea 42 2f 3e c9 16 24 bc df c4 11 be 3e 2b 46 be
       0.1711537 -0.010015198 -0.14235257 -0.19352433
0001a0 65 a1 d5 3e 8a ac bb be ad b2 58 3d 4f a4 c6 bd
       0.41724697 -0.36655074 0.052904774 -0.09699308
0001b0 dc 17 c6 be be d5 02 3d 75 03 7a 3e 2c 39 27 bc
       -0.38690078 0.03194212 0.24415381 -0.010206502
0001c0 bc 8f a5 bd 18 b3 dc 3d 57 18 8c 3e 8c 1d 98 ba
       -0.08084056 0.10776347 0.2736232 -0.0011605485
0001d0 79 67 2f be bf 5a 4d 3e 98 9a 13 bb cb 8a 0d 3e
       -0.17129315 0.20054148 -0.0022522565 0.13822477
0001e0 0a 15 40 3d 96 5f 01 bc 51 d3 f9 be 30 39 43 3d
       0.046895064 -0.007896325 -0.48794034 0.04766196
0001f0 5b 78 c6 3c 05 ac 2e be 20 03 05 3c c0 0d fb 3d
       0.024227312 -0.17057808 0.008118421 0.12258482
000200 e7 fc 20 3d 4b 4a 21 bf 8b f5 63 bc e5 f9 98 bd
       0.039303686 -0.6300399 -0.0139135225 -0.074695386
000210 66 c1 07 3e 5c 69 ec bd 99 02 44 bd d9 f5 f1 3c
       0.1325737 -0.11543533 -0.04785404 0.029536175
000220 f9 48 bc 3d 5d 63 38 bd 45 41 30 3e cb dc a6 3d
       0.09193606 -0.045016635 0.17212398 0.08147582
000230 08 5e c6 3e cc b3 9f bc 48 57 78 bd 67 9f 85 3d
       0.38743615 -0.019494914 -0.060630113 0.06524544
000240 31 84 f6 bd ab 33 78 bd 67 03 aa 3e dd f8 2a be
       -0.12036932 -0.06059615 0.3320572 -0.16696496
000250 e3 c8 bd 3d dd cf 52 be 15 d2 a4 bd 32 bd e0 3d
       0.09266832 -0.20587106 -0.080478825 0.10973586
000260 24 c3 a7 3e 37 04 84 3f 33 07 34 bd 94 6f bb bd
       0.32766068 1.0313786 -0.04395218 -0.09152141
000270 25 5b 7c 3e d9 78 f6 3d 9f c8 83 bd 9b 85 32 be
       0.24644144 0.120347686 -0.0643475 -0.17433779
000280 73 d4 3f 3e e2 f4 8e bd e1 46 8c 3e cb 34 38 3d
       0.18733387 -0.069803014 0.27397826 0.044972222
000290 f9 70 02 3d f7 0f 11 3e c5 10 c0 bb de 7c ec 3d
       0.03184602 0.14166246 -0.005861374 0.11547254
0002a0 43 b3 fe bd 28 e5 b1 3e 30 5b 73 3e 2d 61 61 3d
       -0.12436535 0.34745145 0.23765254 0.055024315
0002b0 be 09 81 3d 6b 32 24 3e 5d 47 8f 3e d8 61 db 3c
       0.06300686 0.16034858 0.27984133 0.026780054
0002c0 56 fe a2 bc 06 46 ed 3d 14 6b 46 be 58 dc e0 bc
       -0.019896667 0.115856215 -0.19376785 -0.027448818
0002d0 b1 4a 25 3e 71 94 14 3c 4d 61 b9 bd 14 77 71 3e
       0.16141774 0.009068594 -0.09051762 0.23580581
0002e0 ab 5d b7 3e 47 00 9d bd 8e 5e b6 3e b1 7a 7a 3e
       0.3581365 -0.076660685 0.35619015 0.24460866
0002f0 44 b6 a7 3d 63 84 8f bd 61 80 91 3d 7d 18 02 be
       0.08189061 -0.07007673 0.071045645 -0.12704654
000300 80 a7 18 be 33 ac e9 3e 28 b8 fa bd be 27 5b bd
       -0.14907646 0.4563919 -0.12242156 -0.053504698
000310 8c 1b 12 be 0c 55 ee 3e da bd 10 be 14 41 40 bd
       -0.14268321 0.4654926 -0.14134923 -0.046937063
000320 52 63 a5 be 3b d0 93 3e 05 69 d1 3d fe 2c c1 3e
       -0.32302338 0.28869805 0.10225109 0.3772964
000330 31 6b 11 3e 06 36 de bc 7a 82 72 be 74 fb cc 3d
       0.14201047 -0.02712537 -0.23682585 0.100088984
000340 92 b7 05 be ab c9 fb bd 9e 5c 2a bf b7 a0 08 bd
       -0.13058308 -0.122943245 -0.6654757 -0.033356395
000350 d9 ed 5e 3d 9f 44 44 be f4 99 57 bd 60 25 09 be
       0.054426048 -0.19166802 -0.052637056 -0.13393164
000360 de 20 1f bc 59 4c 85 3e 9c fe 37 be 34 06 41 3d
       -0.009712426 0.2603481 -0.1796822 0.047125056
000370 89 83 5b 3e 92 f3 43 3c a2 4c 27 bd b2 e1 a2 3d
       0.21436895 0.011959927 -0.040844567 0.07953204
000380 9d ce 9c bd 69 aa c7 3e da 13 a5 bd 69 3f 14 3d
       -0.07656596 0.389972 -0.08060427 0.036193285
000390 ac 4c b4 bd 84 44 a0 3e f2 20 0e 3d 45 18 f4 bd
       -0.088036865 0.31302273 0.034699388 -0.119186915
0003a0 3c ad 58 be b4 e4 15 3e 32 71 c4 3e db 57 24 be
       -0.21159834 0.14638025 0.3836761 -0.16049139
0003b0 5a 1c ea 3e 37 69 f5 3d 91 f7 bb be 7e 83 37 be
       0.45724756 0.11982959 -0.36712316 -0.17921254
0003c0 44 bf b4 bd bb be 8a 3e 7a 14 22 3d 7a 7d 1b be
       -0.088255435 0.2709864 0.03957031 -0.15184584
0003d0 6b 23 be 3c 71 95 1f be 90 4a 86 3d 90 35 bd 3d
       0.023210248 -0.15584351 0.065571904 0.09238732
0003e0 8a 90 37 bd c4 f0 e3 3e eb 4c 52 3c 28 58 73 be
       -0.044815578 0.44519627 0.0128357215 -0.23764098
0003f0 0e f5 be 3c 4a 88 24 be 16 9a 1f be 65 b8 01 3e
       0.02331021 -0.16067615 -0.15586123 0.12667997

gru.weight_hh_l0 f4 [96, 32]
000000 f5 5c a8 3d 9e c1 92 3e 53 fb 77 3e 84 6a b2 3d
       0.08220855 0.28663343 0.24216966 0.087117225
000010 fd f5 37 3e 6f 9a 25 3e 09 4a 3e be 13 af 38 be
       0.17964931 0.16172193 -0.1858293 -0.18035536
000020 f2 38 8e 3e 83 82 ab 3e d1 69 33 3d 77 ee a9 be
       0.2777782 0.3349801 0.043802086 -0.33189747
000030 97 f9 c7 3d 5f c9 a0 be b6 eb 15 be 13 fd 2a be
       0.09764402 -0.31403634 -0.14640698 -0.16698103
000040 bd 45 b3 3c 83 d9 40 3e 0b 1a 54 3e 7f 14 66 bd
       0.02188384 0.18832974 0.2071306 -0.05617189
000050 95 76 ec bd 24 6a 6d be 99 1c bc 3e 23 f3 70 bd
       -0.11546055 -0.2318502 0.36740568 -0.058825623
000060 97 77 60 3e 57 99 99 be 0a 2c 96 3e c7 cd 88 bd
       0.2192062 -0.29999802 0.29330474 -0.06679874
000070 01 fd d0 be c5 a7 fd bb 80 0d 00 3c 4b 63 43 be
       -0.40818027 -0.007740947 0.007815719 -0.19080846
000080 4c fc 94 3e d9 84 3e 3e df 3b 50 be d2 3d f1 3e
       0.29098737 0.18605365 -0.20335339 0.47117478
000090 d4 87 29 be 92 c8 83 3b 81 77 9c 3e ac 8a ea bd
       -0.1655572 0.0040217126 0.30559924 -0.11452231
0000a0 9c 79 d3 bd 62 0b b5 3e 64 93 38 be 48 c0 7d 3e
       -0.103259295 0.35360247 -0.18024975 0.2478038
0000b0 3c c7 ab 3e 02 18 f0 bd 9d a5 10 3e 93 23 ee 3e
       0.3355044 -0.11723329 0.14125676 0.46511516
0000c0 6d 10 49 bd ef d2 b3 bd 0e a8 bf 3e 2d c3 1c 3d
       -0.04908793 -0.08780467 0.37432903 0.03827207
0000d0 44 2b ce 3e 0b 3a 6d be 84 cc c1 3e 5a d5 cf bd
       0.40267384 -0.23166673 0.37851346 -0.101481155
0000e0 44 51 c7 3d 34 58 ed 3d 33 72 4c 3e 07 bd 6c bd
       0.09732297 0.11589089 0.19965439 -0.057797458
0000f0 f4 87 b2 be d7 6d 6b 3e 31 45 9a bd d8 53 81 3e
       -0.3486935 0.2299112 -0.075327285 0.2525928
000100 17 ac 51 bd 38 f0 e4 3d 68 f6 28 3e e9 dc 28 3e
       -0.05118951 0.111786306 0.16500247 0.1649052
000110 a7 e4 13 3b 70 c0 0a be cb b5 6d be bb 94 51 bd
       0.0022566707 -0.13549972 -0.2321388 -0.05116723
000120 08 32 1b 3c 25 20 29 3e f0 2f b2 bd fd 76 6f bc
       0.009472378 0.16516168 -0.087005496 -0.014615771
000130 42 e0 f8 3d cd 5e 3a be 8b e8 8a 3e c1 53 97 bd
       0.12152149 -0.18200226 0.2713054 -0.07389022
000140 a8 5f 26 bc 6d 96 47 3e a4 99 64 be 6d c3 15 3e
       -0.010154642 0.19490977 -0.22324234 0.1462533
000150 c3 0a 58 be 65 3d 0e 3d c0 84 00 3e 86 af de bd
       -0.21097855 0.03472652 0.1255064 -0.10873322
000160 66 1b bc bd 7f 75 63 bd 88 6c 95 bb ca 29 ee bc
       -0.09184913 -0.055531975 -0.004560057 -0.029072661
000170 c2 03 40 3c 1a a2 7c 3d e0 9d d9 3d 7e 30 8e bd
       0.011719646 0.06167803 0.106258154 -0.06942843
000180 11 64 8d 3e 17 36 c1 3d 26 b2 bc be 39 0b a4 be
       0.27615407 0.09434145 -0.36854666 -0.32039812
000190 4b 1c ef be e3 cd ed bd 8b ea 9a 3c e6 a4 8a be
       -0.46701273 -0.116115354 0.018910667 -0.27078933
0001a0 b4 c7 90 bd d3 95 a8 bd 9d 63 bf be f6 64 82 be
       -0.0706934 -0.08231702 -0.37380686 -0.25467652
0001b0 9b fd 61 be 5b f6 31 be 1f f9 38 be b4 45 fe 3d
       -0.22069399 -0.17379133 -0.18063782 0.124156386
0001c0 d1 89 8c be 3d fb 23 3e 5f 10 42 be 26 e8 8e 3d
       -0.27448896 0.16013809 -0.18951558 0.069778726
0001d0 84 96 40 bc 59 7e 2c bb 3e 52 89 3e ff 7c 22 bf
       -0.011754636 -0.0026320426 0.26820558 -0.6347198
0001e0 a2 a2 7a be d6 5c f8 3e 29 0e c2 3d c7 70 ce 3c
       -0.24476102 0.48508328 0.09475357 0.02520026
0001f0 9d 26 14 be 2e ad 95 be 21 71 5a 3e 7c c3 3e 3e
       -0.14467855 -0.29233688 0.21332218 0.18629259
000200 04 4b ae bc 60 e2 01 bd 7f 34 0c bd c5 c1 da 3e
       -0.021276005 -0.03171003 -0.03422975 0.4272596
000210 43 35 0f bc e8 84 88 bd ae b1 35 3e cd 5b 95 3e
       -0.008740726 -0.06665975 0.1774356 0.291716
000220 7c 87 37 be de 9c 91 3d a2 54 96 be 3c 30 05 be
       -0.17922777 0.07109998 -0.29361445 -0.13006681
000230 e1 6f 46 3d 0c 28 89 3d da 2d 7c 3e 35 be 1c 3c
       0.04844654 0.066970915 0.24626866 0.009566833
000240 21 f9 26 be 61 17 89 3e 01 cd 5e be fb 8b 81 3d
       -0.16305973 0.2677565 -0.2175789 0.06325527
000250 de 13 1e 3d 75 3c 44 3d 0c 9b a0 be a4 b7 81 3e
       0.038593166 0.04790922 -0.3136829 0.2533542
000260 79 ef c6 bd 90 aa c4 3e 3e 59 19 3e 75 53 3e 3e
       -0.097136445 0.3841138 0.1497545 0.18586524
000270 dc f0 2f bd 33 1b 1a be 99 82 cc 3e cc 2e bd 3e
       -0.04295431 -0.15049438 0.39943388 0.36949766
000280 8d 03 38 bc d1 b8 3b bc 06 54 d8 3d d0 bf 25 3c
       -0.011231315 -0.011457638 0.10562901 0.010116532
000290 8d 28 ae bd 32 3d 16 3d 1d 89 3a 3e 6f d2 81 be
       -0.08503828 0.036679454 0.18216367 -0.2535586
0002a0 78 2a 61 3e a1 8d a9 3d 18 ca 71 3d 6b 9a 00 be
       0.21988857 0.08278967 0.059030622 -0.12558906
0002b0 39 d5 95 be 17 dc 30 be ae fd 19 be b4 49 47 bd
       -0.29264238 -0.17271458 -0.15038177 -0.048654273
0002c0 1f dd cd bd 2f da 32 bd 5d 4d b9 3b 9b 10 e7 bd
       -0.10051941 -0.043665107 0.0056549744 -0.11282464
0002d0 ec ad 36 3d 28 b1 cd 3d 2c b1 a8 3e 28 05 7a 3d
       0.04459946 0.100435555 0.3294767 0.061040074
0002e0 bf 3a 38 3d b3 cd be 3e 92 e5 97 3e df 7b 2d be
       0.0449779 0.3726631 0.29667336 -0.16941784
0002f0 57 5d 94 be a3 53 aa be 7b a8 ba bd 99 e2 44 3e
       -0.28977463 -0.33266935 -0.09114166 0.19227065
000300 51 6d 82 be 15 c6 be 3e fa 59 ac 3e ae 3c cc 3e
       -0.25474027 0.372605 0.33662397 0.39890045
000310 81 03 48 3e 96 ae 32 3e da c7 e8 3c c5 25 2e 3e
       0.19532587 0.17449412 0.02841561 0.17006595
000320 8a 25 81 be b4 7a 3c 3e df df 30 bd 73 4b a1 3c
       -0.25223953 0.18406183 -0.04318225 0.019689297
000330 2c 8a c9 bd a4 8e 10 be 88 3b 6f 3e cb 7e e5 3c
       -0.09840807 -0.14116913 0.23362553 0.028014561
000340 a6 04 93 3e e0 36 65 bc 02 5f fb bd ac 73 cf bc
       0.28714484 -0.013990134 -0.12273981 -0.025323711
000350 3b 85 11 3d 62 2a 74 bc e5 0d 02 be fa a8 88 3e
       0.03552745 -0.014902683 -0.12700613 0.2669142
000360 d9 e3 aa bd cb 5c 1a 3c c3 89 aa bc fb 29 0e 3e
       -0.0834424 0.009421538 -0.020817643 0.13883202
000370 46 de 0a 3e 5c b7 0c 3e f3 73 ea 3d 2e 0c 8d be
       0.13561353 0.13741821 0.11447897 -0.27548355
000380 4c 49 93 3e 5d 07 43 3e 2c 85 60 be 8e 40 5e 3d
       0.2876686 0.19045778 -0.21925801 0.054260783
000390 b0 d2 b2 be 19 3f ba bc 5a ba 90 3e 58 1a 81 3d
       -0.34926367 -0.022735165 0.28267175 0.06303853
0003a0 38 f5 90 3d 70 f2 bc 3e 17 50 95 be f8 47 a1 be
       0.07078022 0.36903715 -0.29162666 -0.3150022
0003b0 b3 f9 06 3c f1 96 92 3e ea 72 d7 bd 37 4d 48 3f
       0.008238244 0.28630784 -0.10519965 0.7824282
0003c0 4a 8d 75 be ec 2d 2c 3e a5 79 dd 3d 84 10 b5 3e
       -0.23979679 0.16814393 0.108142175 0.35364163
0003d0 e6 45 53 3d 94 d4 60 be ae 82 fd 3e 46 de 1b be
       0.051580332 -0.21956092 0.49513763 -0.1522151
0003e0 51 6f 90 bd 5b 2d d2 3e 0a 7a c8 3e 09 74 69 3e
       -0.07052482 0.41050228 0.39155608 0.2279817
0003f0 75 31 bf be ef 4c 33 bc 51 c2 55 be d3 d6 cc 3e
       -0.3734242 -0.010943635 -0.20874907 0.40007648

gru.bias_ih_l0 f4 [96]
000000 cf 44 e6 bd 91 d2 49 bd 3a 24 62 bd f3 ca a7 3d
       -0.11243593 -0.049273077 -0.05521033 0.08193006
000010 e2 14 8d 3e 02 1a 43 be 33 7f c1 ba 07 72 5b 3d
       0.27554995 -0.1905289 -0.001476264 0.05357554
000020 1b 22 31 3e cf 96 01 3e ee 92 a1 3e a7 55 38 be
       0.17298166 0.12655185 0.3155741 -0.18001424
000030 61 ef 09 bd cd 8a 1d 3d ea 29 2a 3e d7 ac 23 bd
       -0.033675555 0.03846245 0.16617551 -0.039959755
000040 52 a1 59 3e 3c eb 6f 3e 82 d4 5b 3d e7 c6 d9 3d
       0.21252945 0.23429579 0.05366946 0.10633641
000050 99 bd 28 3e fd ec 8b bc 23 7f a6 3d da 7c dd 3c
       0.16478576 -0.017080778 0.08129718 0.027037073
000060 97 dc b1 bd 40 cd 00 3e 37 fb b7 3d 1c 7f 34 3e
       -0.08684652 0.12578297 0.08983462 0.17626613
000070 b3 2e 9c 3d 83 73 8a 3e 33 f6 dc 3c 88 c3 d3 bd
       0.07626095 0.27041253 0.026972866 -0.10340029
000080 0a 2e 60 be 8d 65 9f bd c8 10 98 3d 1e 95 3b 3d
       -0.21892563 -0.07783041 0.07425076 0.045796506
000090 fb 5a 3f bd 06 62 5e 3d 23 8f 8a be a8 13 12 be
       -0.046717625 0.0542927 -0.2706233 -0.14265311
0000a0 ee e0 a2 be 7d 3e e0 3d 9b a9 b5 be 19 73 2f be
       -0.31812233 0.10949419 -0.3548096 -0.1713375
0000b0 1d fe bc bd 54 88 46 be 36 07 c0 3d 64 30 c4 3d
       -0.09228156 -0.19387943 0.093763754 0.09579542
0000c0 ff f7 98 bd f6 2b 43 3e 51 41 a1 bd 1e 35 ad be
       -0.074691765 0.19059739 -0.07873786 -0.33829588
0000d0 91 1c 4a be 02 6a 66 be 27 a8 25 3e 38 e3 b4 be
       -0.1973746 -0.22501376 0.16177426 -0.35329604
0000e0 0b 00 15 be 73 37 7e bd d3 af 74 be 85 8d fa 3d
       -0.14550798 -0.0620646 -0.23895197 0.12234024
0000f0 ba 5b af 3d 40 e8 87 bd 98 95 cb bd ae e6 95 be
       0.08562417 -0.06636095 -0.09940642 -0.29277557
000100 02 fd 61 bd e1 9c 02 3e a9 86 5d 3e 97 51 3d bc
       -0.055172928 0.12755157 0.216334 -0.011555097
000110 c4 39 ab 3e b0 36 6c bc 84 21 00 3d b5 c9 e7 3c
       0.3344251 -0.014417335 0.031281963 0.028294424
000120 e2 bf 3d 3e dc c6 8f 3d 58 2f bd 3e 85 36 1a be
       0.18530229 0.07020351 0.36950183 -0.1505986
000130 f9 52 82 3e f3 cf 3b 3c 43 8d 5d 3d df 14 8f be
       0.25453928 0.011463153 0.054089796 -0.2794561
000140 c0 07 56 3e 37 84 65 bd 3f 8f 17 be 0e 29 51 be
       0.20901394 -0.056034293 -0.14800738 -0.20425817
000150 1c 5a 30 be 10 4d 47 3d 0d 54 73 be 98 35 fe 38
       -0.17221874 0.048657477 -0.23762532 0.000121216464
000160 10 ce 27 3d fd 8b 3c be 22 83 1b be c4 65 05 3d
       0.040968 -0.18412776 -0.15186742 0.032567754
000170 1b e4 85 3c 8e f3 a8 3d 2c dc b8 bd ad cd 7c bd
       0.01634412 0.08249579 -0.090263695 -0.061719585

gru.bias_hh_l0 f4 [96]
000000 a1 4d 8e 3c 84 a7 c8 3d 3b ca 3b 3e 4e 8b bf 3d
       0.017371 0.09797576 0.18338864 0.09352742
000010 4d 43 7b 3d d1 60 97 be 4a 1b e2 3d bb f2 33 bd
       0.06134348 -0.29566053 0.11040361 -0.043932658
000020 54 a1 b7 bd 94 af e8 bd 67 00 c7 3e e7 db 9d 3d
       -0.08966318 -0.11361614 0.38867494 0.07707959
000030 c6 c8 d0 3c d8 eb e8 3b db 80 70 bc f7 f1 33 3e
       0.025486361 0.007108193 -0.014679159 0.17572771
000040 13 1a 79 3e 02 22 af 3d 71 72 20 3e f2 72 27 bb
       0.24326353 0.08551408 0.15668656 -0.002555069
000050 ab 46 0f bd 69 f4 26 3e 17 f5 8e 3d 69 e3 31 be
       -0.034979504 0.16304173 0.06980341 -0.17371906
000060 3d 80 61 bc f6 60 e8 3d 2f aa 43 3e d8 1f 37 3e
       -0.013763485 0.11346619 0.19107889 0.17883241
000070 08 da c9 bd 0a 93 b1 3e ea 7a 7f 3e a2 95 19 3e
       -0.09856039 0.34682494 0.24949232 0.14998487
000080 5c 9d cf 3d 44 05 99 be 84 bf 0d be 0a d9 9a 3a
       0.10137436 -0.2988683 -0.13842589 0.001181395
000090 e2 95 fd bd 53 8c 1d 3e 24 ce 8f 3d 84 06 27 be
       -0.123821035 0.1538556 0.0702174 -0.1631108
0000a0 49 23 b1 be 12 87 c5 3d ca a3 8c be 57 bf 4e bd
       -0.34597233 0.09644903 -0.2746871 -0.050475445
0000b0 df 00 d0 3c db 54 fd be 46 b5 34 be 61 c6 b4 3d
       0.02539104 -0.49478802 -0.17647275 0.088269
0000c0 cd d4 94 3c 63 ca 55 3e 12 9b 92 bd 1e ba c1 bd
       0.018167878 0.20877986 -0.071584836 -0.09459327
0000d0 79 b6 87 be b8 0a 46 be d2 57 7a bd b5 7e 9c be
       -0.26506403 -0.19340026 -0.06111891 -0.3056542
0000e0 97 0e 29 bd 32 0e b1 be 3e 80 df be 6b d5 2f 3e
       -0.04127368 -0.34581143 -0.4365253 0.17171256
0000f0 4c 51 55 39 6e 55 b6 bd 37 3e 4e 3e 5b 62 89 be
       0.00020343548 -0.08903013 0.2014092 -0.26832852
000100 38 d8 a2 3d 29 d7 02 bc e3 89 a0 3d 60 e1 11 bd
       0.07951397 -0.0079858685 0.078388 -0.035615325
000110 06 d3 02 3d 63 a6 ff 3d 3d 5f 23 bc 7e 8c 3e 3d
       0.03193953 0.124829076 -0.009971437 0.046520703
000120 13 83 30 3e d2 f6 85 be 33 1e 9c 3e b5 6a ab bc
       0.17237501 -0.2616487 0.3049179 -0.020924905
000130 7c 8a af 3e c5 e7 61 be c5 96 b3 bd 83 95 90 be
       0.34285343 -0.2206107 -0.087689914 -0.28239068
000140 2a 8a 20 3e b1 ce a5 bc 10 21 8b be fc 2e 77 be
       0.15677705 -0.02024016 -0.27173662 -0.24139017
000150 2c 04 15 3e 66 41 e9 3d 1f 06 9b bc 37 86 00 3e
       0.14552373 0.11389427 -0.018923817 0.12551199
000160 d2 d2 10 3e 34 68 3e be 86 6b 0d 3d 24 a7 37 3e
       0.14142922 -0.18594438 0.03452637 0.17934853
000170 5a 30 28 3d ac f5 80 3e 07 d2 fd bc a2 ef 7d 3d
       0.041061737 0.25187433 -0.030983938 0.06199611
